Assets/Manipulator.onnx (onnx, 93178 bytes, 9 tensors)

network_body.observation_encoder.processors.0.normalizer.running_mean f4 [37]
0.0 0.0 0.0030101726 0.47794414 0.31298238 0.31298244 0.47794405 0.0
0.00830355 0.0 -2.0636825e-15 -1.6321437e-14 -0.0649946 0.90583897 0.0 0.010342151
0.0 -2.6159094e-15 -2.0161972e-15 -0.5675093 0.73631334 0.0 0.006256886 0.0
-0.25485957 -5.146848e-29 1.7241544e-28 0.8537599 0.0 0.0026873313 0.0 0.0
0.0026873313 0.0 -0.13802066 1.7052214 0.26423144
00000000: 0000 0000 0000 0000 5146 453b 18b5 f43e
00000010: 3a3f a03e 3c3f a03e 15b5 f43e 0000 0000
00000020: 9d0b 083c 0000 0000 39b4 14a7 ac02 93a8
00000030: e41b 85bd 10e5 673f 0000 0000 2072 293c
00000040: 0000 0000 037f 3ca7 4648 11a7 4a48 11bf
00000050: 087f 3c3f 0000 0000 9006 cd3b 0000 0000
00000060: f47c 82be f47c 8290 0290 5a11 0290 5a3f
00000070: 0000 0000 f01d 303b 0000 0000 0000 0000
00000080: f01d 303b 0000 0000 4a55 0dbe b244 da3f
00000090: 5849 873e

network_body._body_endoder.seq_layers.0.weight f4 [128, 37]
0.3240217 0.07395216 0.106457815 0.32496554 -0.050257638 -0.20270607 0.058537852 -0.012841903
-0.056057774 -0.19378419 -0.047678076 -0.11153758 0.19733618 0.3800914 -0.1797001 0.26297393
-0.05404724 -0.033868715 0.27523538 0.09409963 -0.2871752 0.22171223 -0.063443944 0.048738677
-0.26148823 0.080356434 0.13858579 0.21138929 -0.122845426 0.18347055 0.06376587 0.14099436
0.033687826 0.25972137 0.37191352 -0.3639449 0.046865758 -0.1627504 -0.1297271 0.020492872
-0.23588401 0.08182484 0.16145688 -0.13415636 0.017983764 0.038039953 0.14539637 0.07773472
-0.10738523 -0.21395086 0.2031582 -0.043640886 -0.13981779 0.45968223 -0.32120267 -0.20903878
0.055460628 -0.19496937 0.060913082 -0.061192572 -0.0694577 -0.3065527 0.18098643 0.17035119
-0.06020785 -0.011534347 -0.32300496 -0.09719053 -0.12963846 0.1712445 -0.045326766 -0.27369773
-0.11516422 0.05535075 0.16222161 -0.18364477 0.051173538 0.098039776 0.13554776 0.21725205
0.2338994 0.017354274 -0.008864463 -0.076076716 -0.09348862 -0.061654657 0.02873779 0.20951945
0.17288554 0.21121721 -0.093100294 0.100843295 0.11628797 0.09736285 0.006722113 -0.2132742
0.14553198 -0.17636538 0.2341589 -0.059098683 -0.0878704 -0.07086452 -0.20349059 0.089127116
0.32854176 0.19314477 -0.008595985 0.0040590353 -0.10185015 -0.24580193 -0.26626867 -0.2999293
-0.18734786 0.018782295 -0.1026417 0.11370226 0.23268393 -0.28945374 -0.1426138 0.20889904
-0.04754282 0.49108872 -0.09398319 0.15442966 0.03224131 0.022595216 -0.22564945 0.3920974
0.15697692 -0.32051384 -0.08203356 0.25312805 0.25186783 -0.21716237 0.009836746 0.11375947
-0.1489796 0.2529408 -0.07956965 -0.3753426 0.24576288 -0.14691977 -0.039055828 0.15614311
0.109387904 0.40991455 0.0106748445 -0.026391642 -0.13988172 -0.13844734 -0.08961931 -0.30344293
0.2320376 0.11637281 -0.08118549 0.17756633 0.019480363 0.29704866 0.17780615 -0.22681165
0.22615238 -0.06069504 -0.23061302 -0.15778466 0.063430995 0.25878674 0.1862546 0.18523443
0.16953582 -0.18558283 -0.2395863 0.28723195 0.08583044 -0.05212664 -0.10269611 0.088102855
0.19279632 0.07639245 0.0012604846 0.49733132 -0.16215867 -0.089626975 0.06979585 0.2826645
-0.3874799 0.15305291 -0.23702508 0.3971849 0.0290506 0.49534395 0.27899933 -0.100089036
-0.2938249 0.06572344 -0.14534715 0.026656484 -0.06890204 0.15959758 -0.06377731 -0.14519379
-0.05865011 0.034569297 0.22215872 0.06480689 0.010926941 0.32303926 -0.021331573 0.24655268
0.26546413 -0.3122188 -0.15990342 0.26984632 0.13978782 -0.21494551 -0.026209706 -0.13033018
0.16920483 0.33661297 0.0061306553 -0.14400697 -0.27130392 0.06755368 0.1749174 0.23808245
0.16074327 0.3484382 -0.003767696 -0.1495204 0.07303034 -0.06884407 -0.2861825 0.14740936
0.19091447 -0.27570695 0.18073243 -0.046305742 0.055676676 0.07892072 -0.15153587 0.19973168
0.09291005 -0.28313887 0.030386148 0.1452929 -0.14136618 -0.1376403 0.034968536 -0.29781285
-0.040238366 0.15513529 0.08009298 -0.12201785 0.1915611 0.014613903 0.028642988 -0.04901673
00000000: 2ce6 a53e 3b74 973d 8e06 da3d e261 a63e
00000010: f4da 4dbd 2e92 4fbe 63c5 6f3d d866 52bc
00000020: d69c 65bd 5d6f 46be 164a 43bd d16d e4bd
00000030: 7f12 4a3e 579b c23e 4e03 38be 85a4 863e
00000040: a460 5dbd ecb9 0abd a7eb 8c3e 4fb7 c03d
00000050: a108 93be 8808 633e e6ee 81bd 35a2 473d
00000060: c9e1 85be ea91 a43d 6fe9 0d3e 6f76 583e
00000070: 6296 fbbd b4df 3b3e ae97 823d d360 103e
00000080: 3ffc 093d 33fa 843e 736b be3e fc56 babe
00000090: 4ff6 3f3d 0aa8 26be 2ed7 04be abe0 a73c
000000a0: 948b 71be c893 a73d f454 253e 4960 09be
000000b0: b052 933c c8cf 1b3d c9e2 143e 6233 9f3d
000000c0: caec dbbd ef15 5bbe b408 503e c9c0 32bd
000000d0: 652c 0fbe 785b eb3e ad74 a4be 430e 56be
000000e0: af2a 633d 0da6 47be ff7f 793d 10a5 7abd
000000f0: d73f 8ebd 7af4 9cbe 8254 393e 8b70 2e3e
00000100: 829c 76bd 8ffa 3cbc e860 a5be d40b c7bd
00000110: f2bf 04be b85a 2f3e 8fa8 39bd 1c22 8cbe
00000120: 38db ebbd 78b7 623d 6c1d 263e 600d 3cbe
00000130: 589b 513d 14c9 c83d 08cd 0a3e 5277 5e3e
00000140: 5383 6f3e 8d2a 8e3c 413c 11bc 1cce 9bbd
00000150: f676 bfbd 9889 7cbd 846b eb3c 448c 563e
00000160: e808 313e 5349 583e 5eab bebd ee86 ce3d
00000170: 6328 ee3d 2d66 c73d 2c45 dc3b 8d64 5abe
00000180: 5606 153e 2099 34be 5ac7 6f3e 7611 72bd
00000190: 65f5 b3bd 6b21 91bd d65f 50be 4788 b63d
000001a0: a036 a83e bec7 453e 2dd6 0cbc a801 853b
000001b0: d096 d0bd 80b3 7bbe 5e54 88be 5590 99be
000001c0: 1ed8 3fbe 54dd 993c d035 d2bd bbdc e83d
000001d0: b244 6e3e 4833 94be 5a09 12be a1e9 553e
000001e0: 43bc 42bd fb6f fb3e 427a c0bd cf22 1e3e
000001f0: 770f 043d 9a19 b93c a610 67be fec0 c83e
00000200: 8fbe 203e 641a a4be 3601 a8bd 009a 813e
00000210: d2f4 803e d05f 5ebe 4e2a 213c bafa e83d
00000220: 1c8e 18be 7581 813e 6af5 a2bd e82c c0be
00000230: 44a9 7b3e 2372 16be 01f9 1fbd fbe3 1f3e
00000240: c406 e03d 52e0 d13e 8be5 2e3c 4933 d8bc
00000250: 273d 0fbe 24c5 0dbe 548a b7bd df5c 9bbe
00000260: 449b 6d3e de54 ee3d 9444 a6bd f3d3 353e
00000270: 4895 9f3c c316 983e d112 363e 5041 68be
00000280: 7d94 673e 5d9b 78bd d225 6cbe 4d92 21be
00000290: 1ce8 813d b27f 843e 87b9 3e3e 18ae 3d3e
000002a0: cc9a 2d3e 6d09 3ebe 1c56 75be 1110 933e
000002b0: dfc7 af3d be82 55bd 5752 d2bd 456f b43d
000002c0: 666c 453e a573 9c3d d836 a53a 36a2 fe3e
000002d0: ec0c 26be 598e b7bd 20f1 8e3d 67b9 903e
000002e0: c463 c6be e7b9 1c3e b4b6 72be d25b cb3e
000002f0: 86fb ed3c b99d fd3e 00d9 8e3e 7bfb ccbd
00000300: 3870 96be 039a 863d e2d5 14be b35e da3c
00000310: 831c 8dbd 8c6d 233e ae9d 82bd aead 14be
00000320: 193b 70bd 8998 0d3d 937d 633e 7ab9 843d
00000330: ea06 333c 6765 a53e 8dbf aebc 4e78 7c3e
00000340: eaea 873e 24db 9fbe b9bd 23be 4c29 8a3e
00000350: 8a24 0f3e ad1a 5cbe bdb5 d6bc 4675 05be
00000360: 0844 2d3e 8958 ac3e aae3 c83b 9076 13be
00000370: 59e8 8abe 9559 8a3d 8c1d 333e e3cb 733e
00000380: e299 243e 7e66 b23e 73eb 76bb e01b 19be
00000390: ee90 953d 1ffe 8cbd 8386 92be 7bf2 163e
000003a0: 157f 433e 7629 8dbe ec11 393e 17ab 3dbd
000003b0: 3a0d 643d 30a1 a13d 382c 1bbe 7686 4c3e
000003c0: a047 be3d 94f7 90be 5fec f83c a9c7 143e
000003d0: 4cc2 10be 94f1 0cbe 2b3b 0f3d ed7a 98be
000003e0: fcd0 24bd c9db 1e3e ca07 a43d 7fe4 f9bd
000003f0: 9828 443e 276f 6f3c b3a4 ea3c c4c5 48bd

network_body._body_endoder.seq_layers.0.bias f4 [128]
0.024227543 0.05672895 0.0783005 0.080022715 0.015548048 0.129068 0.044781283 0.058642425
0.030862473 0.03687578 -0.07527964 0.09760975 0.13243853 0.06466 0.037288636 0.05301642
0.06485783 -0.040903598 -0.008806321 0.08137396 -0.011991548 0.03778487 0.06426441 -0.020583764
-0.00038541373 -0.042399116 0.0028057743 0.09234069 -0.03060593 0.08630476 0.12140348 0.037712935
0.16484164 -0.0043283757 -0.016724657 0.022629792 -0.041325156 0.02315696 0.061431117 0.05933634
0.07844006 0.040668268 0.08407766 0.026707185 0.07717001 0.059885927 0.019829834 -0.01514829
0.05422696 -0.043116577 -0.01724626 0.10475329 0.123536244 -0.02610832 0.036522504 0.04328896
0.05865574 0.07524779 0.036431983 0.004636378 0.119193494 0.11577627 0.051883027 0.06168276
-0.028817357 -0.04634896 0.10203481 0.052640345 -0.025296237 0.08989073 0.08246032 0.12039278
0.034656327 -0.0070410524 -0.059452694 0.080665104 0.056979947 0.10572527 -0.04846977 0.09232227
0.11570101 0.043468315 0.05707897 0.08405754 -0.046820007 0.064172484 0.012837022 0.09293001
-0.056855705 -0.0035529723 0.08427084 0.09565302 0.06487098 -0.0122506805 0.036460385 -0.057774156
-0.037753798 -0.02828942 0.053192325 0.01865202 0.06688176 0.09580011 -0.06733848 0.003519528
-0.06595816 0.012321734 -0.0030500407 0.00810231 0.09842363 0.12079404 0.110417366 0.11924099
-0.008657786 0.032151636 -0.039558686 0.11828735 0.09561537 0.031447183 0.06532571 0.17355824
0.035135385 -0.04512074 0.07979772 -0.08190979 0.10750369 0.061663076 0.038889587 0.0362208
00000000: d778 c63c 9e5c 683d 035c a03d f3e2 a33d
00000010: 3dbd 7e3c 672a 043e 946c 373d 0a33 703d
00000020: 4cd3 fc3c 0f0b 173d 362c 9abd 9fe7 c73d
00000030: f79d 073e 766c 843d f8bb 183d bf27 593d
00000040: 2fd4 843d 888a 27bd 6348 10bc 64a7 a63d
00000050: 3378 44bc 4fc4 1a3d 0f9d 833d 489f a8bc
00000060: 5b11 cab9 b2aa 2dbd 15e1 373b 1e1d bd3d
00000070: 4ab9 fabc 8dc0 b03d 63a2 f83d e178 1a3d
00000080: 3fcc 283e 0cd5 8dbb 2602 89bc 1d62 b93c
00000090: 9144 29bd aab3 bd3c 329f 7b3d a90a 733d
000000a0: 2fa5 a03d c593 263d e930 ac3d 07c9 da3c
000000b0: 4f0b 9e3d f24a 753d 2d72 a23c 8930 78bc
000000c0: 171d 5e3d 029b 30bd 0748 8dbc e588 d63d
000000d0: 9200 fd3d 1ee1 d5bc 9f98 153d c44f 313d
000000e0: 0041 703d 831b 9a3d b439 153d c2ec 973b
000000f0: b81b f43d 1c1c ed3d 4c83 543d 10a7 7c3d
00000100: 6112 ecbc 68d8 3dbd a0f7 d03d 679d 573d
00000110: 0e3a cfbc a218 b83d f5e0 a83d 7d90 f63d
00000120: cbf3 0d3d a1b8 e6bb ab84 73bd bf33 a53d
00000130: ce63 693d 7e86 d83d 3d88 46bd 7513 bd3d
00000140: a7f4 ec3d d50b 323d a3cb 693d 5c26 ac3d
00000150: 56c6 3fbd dd6c 833d 5f52 523c 1752 be3d
00000160: 87e1 68bd fcd8 68bb 3196 ac3d bbe5 c33d
00000170: 14db 843d 14b7 48bc 7c57 153d 98a4 6cbd
00000180: baa3 1abd 37bf e7bc 32e0 593d 1fcc 983c
00000190: 4ef9 883d d932 c43d c2e8 89bd e2a7 663b
000001a0: 1215 87bd 19e1 493c 31e3 47bb 8dbf 043c
000001b0: 5492 c93d de62 f73d 8022 e23d 9f34 f43d
000001c0: 63d9 0dbc 6fb1 033d 4a08 22bd a340 f23d
000001d0: fed1 c33d c3ce 003d 7cc9 853d 40b9 313e
000001e0: 1fea 0f3d 86d0 38bd fd6c a33d 52c0 a7bd
000001f0: e52a dc3d 6c92 7c3d b04a 1f3d 435c 143d

network_body._body_endoder.seq_layers.2.weight f4 [128, 128]
0.13610636 -0.06489843 -0.03854848 0.13659962 0.06828958 0.040766258 0.13058785 0.014849074
-0.15901244 -0.08539953 -0.051551696 -0.077064276 0.03034646 0.017445702 0.33931518 0.2751784
-0.11809509 -0.057571 -0.2344645 0.027351398 -0.0853965 0.012531998 0.049670894 0.22570701
-0.0815442 -0.030861022 -0.09087326 -0.18153678 -0.11350623 -0.090385675 -0.2505102 -0.1699564
0.06375211 -0.12441433 -0.19066583 -0.09363862 -0.1732737 -0.20796092 0.07863823 -0.1211317
-0.076879226 0.23522407 -0.10781459 0.119673334 -0.004619088 0.11144636 -0.10671567 -0.13566409
-0.15096132 0.059933256 -0.20554328 0.0067280517 0.20215382 0.20326929 -0.06949113 -0.020067295
0.04523026 -0.15014356 -0.06891273 -0.10378946 0.094529286 0.07923085 0.1563459 -0.011427747
-0.056170713 -0.07865978 0.0037131996 -0.019398939 -0.012542789 0.07556491 -0.43234545 0.036801763
0.11286195 0.04226724 -0.09083637 0.10506958 0.2330146 0.03979474 -0.16556926 0.12041093
0.16841577 0.13329671 0.16564408 -0.16814196 -0.24195777 -0.2110596 0.101280384 -0.04055832
-0.06271763 0.06427816 -0.098582864 0.074069016 -0.08997948 -0.02175818 -0.20798425 -0.030785006
-0.10837589 -0.009072689 0.048318136 0.032776788 -0.12299019 0.008742694 -0.22534741 -0.11676985
0.07824084 0.06804049 -0.062691316 -0.056681573 0.08817267 0.0075370125 -0.104256995 -0.077767596
-0.06389018 0.03951919 -0.07441879 -0.08022599 -0.089592725 0.21695413 0.08828432 0.055871826
0.118383855 -0.0188411 -0.16122149 0.05491263 -0.037783828 -0.037047695 -0.23178805 -0.19429876
-0.07473999 -0.02431573 -0.03862348 0.31872597 0.08733322 -0.23499948 -0.18427874 -0.099928305
0.07831715 0.038052727 -0.017764071 0.048198987 0.0480233 -0.080699496 0.046923436 -0.05094226
-0.15692943 0.02082045 -0.07946494 0.02825987 -0.0016310633 -0.10443831 -0.022489786 -0.026571209
-0.077575274 0.0037878864 -0.07362353 -0.04346741 0.024419554 0.15905453 -0.16564035 0.27002093
0.13866559 0.05619926 -0.102050595 -0.029638333 -0.06875729 0.08186486 0.21158834 -0.04335616
-0.003920798 0.067290954 -0.13034585 0.0562857 0.011844768 0.19481887 0.015584008 0.019679096
-0.14687483 0.109845646 -0.06083828 0.08117419 0.11407714 0.071526326 0.002416658 0.032392766
0.110479556 -0.1872655 0.0287987 -0.105794325 0.0049698786 -0.063607365 0.0300281 0.056474503
0.05941595 0.019073524 0.19795497 -0.02310812 0.044648346 0.018092573 0.05657973 0.071566194
0.16390756 -0.0010706838 -0.106173806 0.049466245 -0.06447258 0.05895117 -0.22505191 0.06402332
0.17626579 -0.28109324 -0.073327176 0.05303435 -0.08141545 0.13812111 0.19513887 0.041020546
-0.18113324 0.08533989 0.19059834 0.11368762 -0.07203991 0.10746284 0.028118964 -0.08823938
0.12390354 -0.11240155 -0.0024592201 -0.06731721 -0.19696687 -0.20512949 0.10853804 0.13546509
0.08810861 -0.05549936 -0.08710573 0.10333637 0.0966649 0.13175084 -0.04383986 -0.070371374
-0.081404686 -0.07530364 0.102011785 -0.07676447 0.033413153 0.2283554 0.20976928 -0.006434752
-0.13406977 -0.07968929 -0.08663387 -0.05885129 0.08047281 0.043407697 -0.112634085 0.25632426
00000000: 775f 0b3e 78e9 84bd 03e5 1dbd c5e0 0b3e
00000010: 68db 8b3d 85fa 263d d2b8 053e 8849 733c
00000020: 28d4 22be f3e5 aebd df27 53bd e0d3 9dbd
00000030: 2499 f83c 4aea 8e3c b8ba ad3e 2fe4 8c3e
00000040: d7db f1bd 92cf 6bbd 7617 70be 0a10 e03c
00000050: 5ce4 aebd 0253 4d3c b573 4b3d bd1f 673e
00000060: a500 a7bd 41d0 fcbc c21b babd c7e4 39be
00000070: f475 e8bd 201c b9bd df42 80be 0d09 2ebe
00000080: 7790 823d f1cc febd e73d 43be 9bc5 bfbd
00000090: a96e 31be b5f3 54be 150d a13d e613 f8bd
000000a0: db72 9dbd 94de 703e e5cd dcbd 4b17 f53d
000000b0: b85b 97bb fd3d e43d bf8d dabd 87eb 0abe
000000c0: 9b95 1abe 937c 753d f079 52be fd76 dc3b
000000d0: 6901 4f3e d325 503e 5e51 8ebd 2b64 a4bc
000000e0: 5d43 393d 3cbf 19be 1e22 8dbd 928f d4bd
000000f0: 9298 c13d c943 a23d 2419 203e 723b 3bbc
00000100: 4313 66bd 6118 a1bd 2759 733b 86ea 9ebc
00000110: 4580 4dbc c7c1 9a3d 625c ddbe 72bd 163d
00000120: 2b24 e73d 6a20 2d3d 6b08 babd b82e d73d
00000130: 619b 6e3e cfff 223d fd8a 29be 019a f63d
00000140: 2f75 2c3e ef7e 083e 9a9e 293e 682d 2cbe
00000150: c7c3 77be 0220 58be 176c cf3d 7b20 26bd
00000160: 1a72 80bd 45a4 833d d0e5 c9bd 7fb1 973d
00000170: 2947 b8bd 363e b2bc d3f9 54be d630 fcbc
00000180: 2ef4 ddbd 9ea5 14bc 3de9 453d f440 063d
00000190: 48e2 fbbd 843d 0f3c 79c1 66be 0825 efbd
000001a0: bc3c a03d d058 8b3d 4e64 80bd f02a 68bd
000001b0: df93 b43d 0bf9 f63b b184 d5bd 9e44 9fbd
000001c0: dbd8 82bd e0de 213d e168 98bd 864d a4bd
000001d0: 647c b7bd 3929 5e3e 69ce b43d dbd9 643d
000001e0: 3c73 f23d a758 9abc 3f17 25be 11ec 603d
000001f0: 37c3 1abd 53bf 17bd d959 6dbe 41f6 46be
00000200: 4811 99bd c831 c7bc a733 1ebd 0d30 a33e
00000210: c2db b23d b4a3 70be 91b3 3cbe 36a7 ccbd
00000220: be64 a03d 2ddd 1b3d f585 91bc 4d6c 453d
00000230: 14b4 443d c745 a5bd ca32 403d d5a8 50bd
00000240: 1cb2 20be a68f aa3c 84be a2bd 3e81 e73c
00000250: 67c9 d5ba c1e3 d5bd 803c b8bc ddab d9bc
00000260: c9df 9ebd 303e 783b efc7 96bd e20a 32bd
00000270: 840b c83c 31df 223e a09d 29be 2f40 8a3e
00000280: 5afe 0d3e 3231 663d e7ff d0bd 17cc f2bc
00000290: 9fd0 8cbd c4a8 a73d 9daa 583e 3b96 31bd
000002a0: 0a7a 80bb d7cf 893d 6279 05be d68b 663d
000002b0: 8f10 423c 997e 473e 1154 7f3c 0e36 a13c
000002c0: 5b66 16be c1f6 e03d 8f31 79bd a73e a63d
000002d0: 47a1 e93d 657c 923d cb60 1e3b 47ae 043d
000002e0: 1b43 e23d 87c2 3fbe 40eb eb3c b2aa d8bd
000002f0: 5dda a23b 9444 82bd 7dfd f53c cf51 673d
00000300: 245e 733d 1440 9c3c b5b4 4a3e 3d4d bdbc
00000310: 2fe1 363d e036 943c 26c0 673d 4c91 923d
00000320: 62d7 273e 3056 8cba a771 d9bd 1e9d 4a3d
00000330: 330a 84bd c876 713d 0274 66be a91e 833d
00000340: 057f 343e 74eb 8fbe 8f2c 96bd 8c3a 593d
00000350: 25bd a6bd 9f6f 0d3e 7cd2 473e 2905 283d
00000360: fe7a 39be aec6 ae3d 362c 433e 0ed5 e83d
00000370: a989 93bd 7a15 dc3d be59 e63c d9b6 b4bd
00000380: 24c1 fd3d c932 e6bd de2a 21bb 9bdd 89bd
00000390: afb1 49be 770d 52be 3149 de3d 5cb7 0a3e
000003a0: 4972 b43d 4c53 63bd 7d64 b2bd 05a2 d33d
000003b0: 3ff8 c53d b1e9 063e 6d91 33bd de1e 90bd
000003c0: 80b7 a6bd cb38 9abd 8eeb d03d b136 9dbd
000003d0: 3bdc 083d ffd5 693e c2cd 563e 9dda d2bb
000003e0: 9649 09be 2334 a3bd 196d b1bd 0d0e 71bd
000003f0: eece a43d 45cc 313d b3ac e6bd ef3c 833e

network_body._body_endoder.seq_layers.2.bias f4 [128]
0.025436264 0.046520453 0.09928105 0.0075688423 0.022228409 0.11649496 -0.029347856 0.032787673
0.086543806 0.01562937 0.012740329 0.048770647 0.10149802 -0.021203568 -0.019606136 0.003623254
0.01755187 0.052718595 0.07038622 0.03433124 -0.0021383984 0.060818657 0.0012501735 0.02464135
0.056441728 0.034167368 0.06785247 0.09970518 0.049024146 0.024764234 0.0338414 -0.04214315
-0.026394516 0.074090764 0.01318147 0.00011754934 0.090521276 0.03993485 0.023414262 0.014226639
0.0765514 0.057226725 0.012234482 0.061994813 0.058977433 0.009422228 0.032050855 -0.043366406
0.06730159 1.0259175e-05 -0.029266203 -0.040092446 0.061706044 0.07761488 -0.025851594 0.100071914
0.09563507 0.1046892 -0.023880627 -0.04697333 0.14089619 0.027797127 0.062103707 -0.060056757
0.113535464 0.09417625 -0.0077063236 0.06372025 0.06194099 0.11525756 0.025822403 0.05704701
0.066880934 0.045215443 0.08620288 0.0010905847 0.08109093 -0.0077526895 0.09341755 0.069500946
0.088596635 0.0898653 0.0734114 -0.021368278 -0.044842824 0.062692605 0.0012920039 -0.011012228
0.099337585 0.08969037 0.016679421 -0.026058622 0.050071478 0.0320179 -0.03450721 0.0082564335
0.020279497 0.107730374 0.0076773455 0.07580725 0.015765809 0.09188119 0.019473324 -0.02754691
0.073352106 -0.009709383 0.027101332 0.030173816 -0.0037184164 0.12240382 -0.045869205 0.07192252
0.06528258 -0.029235562 -0.019011885 0.035296395 0.047050025 0.12406318 -0.016935172 0.053174846
-0.0012277212 0.11354156 0.030172681 0.022002183 0.06497351 0.06414534 0.07585818 -0.0017511928
00000000: b65f d03c 3b8c 3e3d dd53 cb3d 0d04 f83b
00000010: 5a18 b63c e994 ee3d ea6a f0bc 5e4c 063d
00000020: e13d b13d 2a09 803c d0bc 503c bbc3 473d
00000030: 32de cf3d 1bb3 adbc 0c9d a0bc 1d74 6d3b
00000040: f0c8 8f3c 74ef 573d a726 903d ea9e 0c3d
00000050: 5f24 0cbb fc1c 793d dddc a33a a8dc c93c
00000060: 712f 673d 15f3 0b3d 3cf6 8a3d 3b32 cc3d
00000070: 8bcd 483d 5dde ca3c 489d 0a3d 4c9e 2cbd
00000080: 5039 d8bc e6bc 973d 18f7 573c d284 f638
00000090: 3863 b93d ba92 233d 44cf bf3c d916 693c
000000a0: fbc6 9c3d 9266 6a3d 2373 483c 46ee 7d3d
000000b0: 5292 713d b05f 1a3c c247 033d f9a0 31bd
000000c0: 6bd5 893d d21e 2c37 adbf efbc fa37 24bd
000000d0: 7abf 7c3d 8df4 9e3d b9c6 d3bc 81f2 cc3d
000000e0: 52dc c33d 4b67 d63d 4ea1 c3bc 1b67 40bd
000000f0: 1747 103e cdb6 e33c 7560 7e3d 13fe 75bd
00000100: 4885 e83d 7adf c03d 5485 fcbb c37f 823d
00000110: d6b5 7d3d 280c ec3d 8189 d33c 20aa 693d
00000120: dff8 883d d433 393d 238b b03d f3f1 8e3a
00000130: 0013 a63d 460a febb b351 bf3d 8356 8e3d
00000140: 2772 b53d 4c0b b83d b758 963d 870c afbc
00000150: 1cad 37bd fb64 803d 7558 a93a a26c 34bc
00000160: 8171 cb3d 96af b73d 48a3 883c e478 d5bc
00000170: c017 4d3d 3425 033d 6f57 0dbd fe45 073c
00000180: 3021 a63c bea1 dc3d 3e92 fb3b d540 9b3d
00000190: 4c27 813c 352c bc3d 8586 9f3c 0faa e1bc
000001a0: a139 963d 1b14 1fbc 9d03 de3c 142f f73c
000001b0: adb0 73bb dbae fa3d 59e1 3bbd 1d4c 933d
000001c0: e0b2 853d 6b7f efbc d0be 9bbc f492 103d
000001d0: 87b7 403d d614 fe3d a1bb 8abc decd 593d
000001e0: 7deb a0ba 7a88 e83d b32c f73c ec3d b43c
000001f0: d510 853d a25e 833d 895b 9b3d 4888 e5ba

action_model._continuous_distribution.log_sigma f4 [1, 4]
-0.1331092 -0.18579572 -0.1601679 -0.12305982
00000000: c74d 08be 3c41 3ebe 0e03 24be c906 fcbd

action_model._continuous_distribution.mu.weight f4 [4, 128]
-0.1887218 -0.06628902 0.044294935 0.019861525 -0.05108546 0.014925657 -0.1116445 -0.017788555
-0.055867776 -0.11754822 -0.13530509 0.06451563 0.045673065 0.048750143 -0.0052673635 -0.12300178
0.19663085 0.008663796 -0.083396964 -0.015431883 0.077041954 -0.016361909 -0.14245659 -0.0043004425
0.020358726 -0.06799723 0.16250725 -0.018773424 0.04879112 -0.10373042 0.20368987 0.07854096
0.07716793 0.16602018 -0.032626897 0.042658117 -0.07747202 0.17653197 0.040471766 0.035435006
-0.06428505 -0.1429626 0.2114819 -0.050252527 -0.053909514 -0.096797496 -0.1604069 -0.0922719
-0.018509476 0.13547109 0.059325296 0.065027975 0.13762198 -0.027286762 -0.09844698 -0.10058848
-0.08435214 -0.06438401 -0.07603103 -0.09463845 0.086293794 -0.15759835 0.00066927273 0.045485105
0.0155744115 -0.14664558 -0.018429792 -0.069340214 0.15373303 0.091763385 0.10415514 0.10360558
0.025881937 -0.13564171 -0.081413545 0.07678596 -0.036106814 0.13540097 0.051237006 0.18619576
-0.042318117 -0.20701872 -0.13491084 0.13101235 0.09365126 0.017910719 0.0071107713 -0.12527522
0.004385096 0.039945565 0.021345373 0.15377764 -0.09660187 -0.20161925 -0.07922641 0.14804594
-0.06424433 0.07770025 -0.03439948 -0.06963728 0.101091474 -0.056201614 -0.042586647 -0.15683867
-0.07584751 0.0064022536 0.23550652 -0.008569931 -0.0017434361 0.07257123 -0.08708037 0.106828205
-0.100274466 0.1318153 -0.023708345 0.01994409 0.14827178 -0.08117384 -0.029065184 0.16614227
-0.02134389 0.11149587 -0.12641923 -0.015830705 -0.18355943 0.04643242 0.060254894 0.18869954
-0.10888233 0.11107102 0.19745992 -0.1338277 0.056545712 0.123958945 -0.0808662 -0.17467329
0.0895497 -0.02112318 -0.08038653 -0.090061985 0.09467768 0.008682061 -0.10221108 -0.16216394
-0.014389087 0.13902077 0.1137903 0.021744013 -0.1575635 -0.07178057 -0.15823047 0.1030091
0.11024932 -0.11654155 -0.037778296 0.0342011 0.12619394 -0.027342914 -0.09956885 -0.10113234
-0.04364665 -0.03152955 -0.14006872 -0.11417212 0.091162555 0.102883525 -0.037439577 0.086414225
0.040226813 -0.1133678 0.062005162 0.11159319 0.07326051 0.017832717 -0.11439629 -0.12264323
0.17463687 -0.024042308 -0.029884398 -0.11592293 -0.03796287 0.1308055 -0.011176787 0.14926247
0.09778813 0.0007705567 -0.050378866 -0.11572757 0.07522336 -0.1098202 0.12979692 -0.074042186
0.14544491 0.16055356 0.10891573 0.14777745 0.010095186 0.030881241 -0.052088667 0.12858854
0.1569737 0.056038946 0.16257715 -0.12043158 0.16427827 -0.026278358 0.13685687 0.026383124
0.03259533 0.062309787 0.008520015 -0.13118793 -0.10820584 0.13272129 0.03698039 -0.048689667
0.058116138 0.00049409753 -0.1864491 -0.07528285 -0.033528887 0.050965052 -0.10822302 0.048549633
-0.09720029 0.14113808 -0.15399326 -0.061625723 -0.16740419 0.15863861 -0.08384086 -0.07209943
0.098174855 -0.17278685 0.07505629 0.09672089 -0.13080403 0.09754172 -0.057200294 0.10626436
0.0424183 -0.041031547 -0.095322505 0.1117388 0.0024069077 0.05539729 -0.19109541 -0.019749068
0.007417801 0.06488828 0.020592008 -0.22310503 -0.08663245 -0.07781872 -0.036690176 -0.06774786
00000000: 4a40 41be 8ac2 87bd 9b6e 353d a3b4 a23c
00000010: fd3e 51bd be8a 743c dfa5 e4bd 4eb9 91bc
00000020: 9cd5 64bd 1fbd f0bd 6b8d 0abe c520 843d
00000030: ae13 3b3d 3bae 473d d999 acbb 5be8 fbbd
00000040: 9959 493e 98f2 0d3c 07cc aabd 02d6 7cbc
00000050: 2cc8 9d3d 6909 86bc 24e0 11be baea 8cbb
00000060: 58c7 a63c 2242 8bbd 4d68 263e b9ca 99bc
00000070: 33d9 473d 9d70 d4bd 1494 503e 15da a03d
00000080: 380a 9e3d 3201 2a3e c8a3 05bd 47ba 2e3d
00000090: a7a9 9ebd ccc4 343e b9c5 253d 4c24 113d
000000a0: e1a7 83bd ca64 12be b68e 583e 98d5 4dbd
000000b0: 39d0 5cbd c43d c6bd b541 24be 0df9 bcbd
000000c0: 2fa1 97bc efb8 0a3e 15ff 723d 632d 853d
000000d0: c7ec 0c3e 7d88 dfbc 929e c9bd 5501 cebd
000000e0: d1c0 acbd c4db 83bd 28b6 9bbd ced1 c1bd
000000f0: cdba b03d 7661 21be 2272 2f3a 974e 3a3d
00000100: d12b 7f3c 422a 16be 13fa 96bc 3e02 8ebd
00000110: 316c 1d3e 71ee bb3d 4a4f d53d 2a2f d43d
00000120: 5b06 d43c a9e5 0abe 25bc a6bd f541 9d3d
00000130: bde4 13bd 8da6 0a3e e5dd 513d 1aaa 3e3e
00000140: c355 2dbd b7fc 53be 1126 0abe 1a28 063e
00000150: 3bcc bf3d 80b9 923c 7901 e93b 2648 00be
00000160: dab0 8f3b f69d 233d 7edc ae3c e377 1d3e
00000170: 34d7 c5bd 4775 4ebe 7541 a2bd 5b99 173e
00000180: 8892 83bd 4f21 9f3d 78e6 0cbd fe9d 8ebd
00000190: 0c09 cf3d aa33 66bd 566f 2ebd 519a 20be
000001a0: f055 9bbd ffc9 d13b 9f28 713e e568 0cbc
000001b0: 0284 e4ba 3aa0 943d 3157 b2bd bfc8 da3d
000001c0: b35c cdbd 97fa 063e 0138 c2bc ca61 a33c
000001d0: 8fd4 173e 783e a6bd 1c1a eebc 3321 2a3e
000001e0: 62d9 aebc f257 e43d 0b74 01be 65af 81bc
000001f0: 01f7 3bbe ec2f 3e3d d6cd 763d 743a 413e
00000200: b3fd debd 3479 e33d ef32 4a3e 210a 09be
00000210: 7a9c 673d 30de fd3d 2e9d a5bd 8edd 32be
00000220: d565 b73d 850a adbc b1a1 a4bd 6b72 b8bd
00000230: 5fe6 c13d 343f 0e3c 0b54 d1bd 4e0e 26be
00000240: 35c0 6bbc 765b 0e3e e40a e93d 8020 b23c
00000250: 5358 21be b101 93bd 2b07 22be 6ff6 d23d
00000260: 65ca e13d 56ad eebd 6abd 1abd 7416 0c3d
00000270: fc38 013e 3ffe dfbc c1ea cbbd 791e cfbd
00000280: d4c6 32bd 2125 01bd 2d6e 0fbe 13d3 e9bd
00000290: 6fb3 ba3d 99b4 d23d 3e5a 19bd f1f9 b03d
000002a0: dfc4 243d 612d e8bd 20f9 7d3d f88a e43d
000002b0: 9b09 963d eb15 923c 9a48 eabd 602c fbbd
000002c0: 02d4 323e 60f4 c4bc 20d0 f4bc 0069 edbd
000002d0: f47e 1bbd e1f1 053e d81e 37bc 43d8 183e
000002e0: 2545 c83d 2fff 493a 125a 4ebd 9402 edbd
000002f0: b40e 9a3d 6ae9 e0bd 7ce9 043e 6ea3 97bd
00000300: 83ef 143e 2768 243e 360f df3d f952 173e
00000310: 4766 253c a8fa fc3c ed5a 55bd b7ac 033e
00000320: b7bd 203e 1889 653d a07a 263e d5a4 f6bd
00000330: 9038 283e b645 d7bc 3524 0c3e 6c21 d83c
00000340: ae82 053d 8c38 7f3d 8897 0b3c 2156 06be
00000350: 069b ddbd 17e8 073e c078 173d d16e 47bd
00000360: 300b 6e3d 5386 013a 83ec 3ebe e52d 9abd
00000370: 9655 09bd bbc0 503d 08a4 ddbd fbdb 463d
00000380: f210 c7bd 8086 103e 69b0 1dbe 416b 7cbd
00000390: 016c 2bbe 2972 223e c2b4 abbd dea8 93bd
000003a0: e60f c93d 09ef 30be 1db7 993d 9a15 c63d
000003b0: 7ef1 05be f4c3 c73d db4a 6abd 21a1 d93d
000003c0: d0be 2d3d b210 28bd 7238 c3bd 50d7 e43d
000003d0: 36bd 1d3b 45e8 623d 84ae 43be ccc8 a1bc
000003e0: 0611 f33b 26e4 843d 92b0 a83c a575 64be
000003f0: 5b6c b1bd 6c5f 9fbd 7048 16bd 64bf 8abd

action_model._continuous_distribution.mu.bias f4 [4]
-0.008393321 0.05301921 -0.071833014 -0.008801097
00000000: 2484 09bc ac2a 593d 301d 93bd 7a32 10bc

onnx::Div_51 f4 [37]
0.000999997 0.000999997 0.0010000014 0.24851625 0.33443782 0.33443785 0.24851617 0.000999997
0.0010000312 0.000999997 0.000999997 0.000999997 0.40340754 0.11178444 0.000999997 0.0010000503
0.000999997 0.000999997 0.000999997 0.32461968 0.17432995 0.000999997 0.0010000165 0.000999997
0.42425066 0.000999997 0.000999997 0.1617201 0.000999997 0.0010000005 0.000999997 0.000999997
0.0010000005 0.000999997 0.90975946 0.659082 0.91038543
00000000: 5512 833a 5512 833a 7b12 833a 0b7b 7e3e
00000010: 6f3b ab3e 703b ab3e 067b 7e3e 5512 833a
00000020: 7b13 833a 5512 833a 5512 833a 5512 833a
00000030: 6f8b ce3e 3eef e43d 5512 833a 1f14 833a
00000040: 5512 833a 5512 833a 5512 833a 8d34 a63e
00000050: 8d83 323e 5512 833a fc12 833a 5512 833a
00000060: 6237 d93e 5512 833a 5512 833a f499 253e
00000070: 5512 833a 7312 833a 5512 833a 5512 833a
00000080: 7312 833a 5512 833a ffe5 683f 99b9 283f
00000090: 050f 693f
